…
	2760725 interactions
Mon 26 Jul 2021 08:37:38 INFO valid_g Dataset:
	346256 interactions
Mon 26 Jul 2021 08:37:38 INFO test_g Dataset:
	323658 interactions
Mon 26 Jul 2021 08:37:38 INFO test_g Dataset:
	323658 interactions
Mon 26 Jul 2021 08:37:38 INFO test_j Dataset:
	158254 interactions
Mon 26 Jul 2021 08:37:38 INFO train_g Dataset:
	1076087 interactions
Mon 26 Jul 2021 08:37:38 INFO train_j Dataset:
	1684638 interactions
Mon 26 Jul 2021 08:37:38 INFO user_add Dataset:
	1767584 interactions
Mon 26 Jul 2021 08:37:38 INFO job_add Dataset:
	342216 interactions
Mon 26 Jul 2021 08:37:45 INFO APJFNN(
  (emb): Embedding(26383, 64, padding_idx=0)
  (geek_biLSTM): LSTM(64, 64, batch_first=True, bidirectional=True)
  (job_biLSTM): LSTM(64, 64, batch_first=True, bidirectional=True)
  (job_layer): JobLayer(
    (attn1): SelfAttentionEncoder(
      (attn): Sequential(
        (0): Linear(in_features=128, out_features=128, bias=True)
        (1): Tanh()
        (2): Linear(in_features=128, out_features=1, bias=False)
        (3): Softmax(dim=1)
      )
    )
    (biLSTM): LSTM(128, 64, batch_first=True, bidirectional=True)
    (attn2): SelfAttentionEncoder(
      (attn): Sequential(
        (0): Linear(in_features=128, out_features=128, bias=True)
        (1): Tanh()
        (2): Linear(in_features=128, out_features=1, bias=False)
        (3): Softmax(dim=1)
      )
    )
  )
  (geek_layer): GeekLayer(
    (co_attn): CoAttentionEncoder(
      (W): Linear(in_features=128, out_features=128, bias=False)
      (U): Linear(in_features=128, out_features=128, bias=False)
      (attn): Sequential(
        (0): Tanh()
        (1): Linear(in_features=128, out_features=1, bias=False)
        (2): Softmax(dim=0)
      )
    )
    (biLSTM): LSTM(128, 64, batch_first=True, bidirectional=True)
    (self_attn): SelfAttentionEncoder(
      (attn): Sequential(
        (0): Linear(in_features=128, out_features=128, bias=True)
        (1): Tanh()
        (2): Linear(in_features=128, out_features=1, bias=False)
        (3): Softmax(dim=1)
      )
    )
  )
  (mlp): MLP(
    (net): Sequential(
      (0): Linear(in_features=384, out_features=384, bias=True)
      (1): Tanh()
      (2): Linear(in_features=384, out_features=1, bias=True)
    )
  )
  (loss): BCEWithLogitsLoss()
)
	Trainable parameters: 2251329
Mon 26 Jul 2021 16:27:17 INFO epoch 0 training [time: 28172.16s, train loss:2024.6848]
Mon 26 Jul 2021 16:50:14 INFO epoch 0 evaluating [time: 1377.10s, valid_score: 0.586100]
Mon 26 Jul 2021 16:50:14 INFO valid result:
	gauc:	0.5861
	p@5:	0.2020
	r@5:	0.5936
	mrr:	0.4578
Mon 26 Jul 2021 16:50:14 INFO Saving current best: ./saved/APJFNN-Jul-26-2021_08-37-45.pth
…
