…
  File "/home/yangchen/miniconda3/envs/recbole/lib/python3.8/logging/__init__.py", line 367, in getMessage
    msg = str(self.msg)
  File "/home/yangchen/Reappearance/BGPJF/data/dataset.py", line 199, in __str__
    f'bert_vec: {self.bert_vec.shape}'
AttributeError: 'MultiPJFDataset' object has no attribute 'bert_vec'
Call stack:
  File "main.py", line 106, in <module>
    main_process(model=args.model, config_dict={
  File "main.py", line 58, in main_process
    logger.info(ds)
Unable to print the message and arguments - possible formatting error.
Use the traceback above to help find the error.
16 Jun 12:10    INFO MultiPJF(
  (user_embedding_c): Embedding(55493, 256)
  (item_embedding_c): Embedding(41718, 256)
  (user_embedding_p): Embedding(55493, 256)
  (item_embedding_p): Embedding(41718, 256)
  (gcn_layers): Sequential(
    (0): GCNConv()
    (1): GCNConv()
  )
  (GCN_batchnorm): BatchNorm1d(512, eps=1e-05, momentum=0.1, affine=True, track_running_stats=True)
  (bert_mlp): Sequential(
    (0): Linear(in_features=768, out_features=256, bias=True)
    (1): BatchNorm1d(256, eps=1e-05, momentum=0.1, affine=True, track_running_stats=True)
    (2): Sigmoid()
    (3): Dropout(p=0.2, inplace=False)
    (4): Linear(in_features=256, out_features=512, bias=True)
    (5): BatchNorm1d(512, eps=1e-05, momentum=0.1, affine=True, track_running_stats=True)
  )
  (fusion_layer): FusionLayer(
    (m): SimpleFusionLayer(
      (fc): Linear(in_features=2048, out_features=512, bias=True)
    )
    (g): Sequential(
      (0): Linear(in_features=1024, out_features=1, bias=True)
      (1): Sigmoid()
    )
  )
  (sigmoid): Sigmoid()
  (loss): BCEWithLogitsLoss()
)
	Trainable parameters: 51153153
Train     0:   0%|          | 0/675 [00:00<?, ?it/s]Train     0:   0%|          | 1/675 [00:00<09:41,  1.16it/s]Train     0:   0%|          | 2/675 [00:01<05:04,  2.21it/s]Train     0:   0%|          | 3/675 [00:01<03:43,  3.00it/s]
…
