…
	bert_vec: torch.Size([346256, 768])
Thu 19 Aug 2021 03:45:08 INFO test_g Dataset:
	323658 interactions
	bert_vec: torch.Size([323658, 768])
Thu 19 Aug 2021 03:45:08 INFO test_g Dataset:
	323658 interactions
	bert_vec: torch.Size([323658, 768])
Thu 19 Aug 2021 03:45:08 INFO test_j Dataset:
	158254 interactions
	bert_vec: torch.Size([158254, 768])
Thu 19 Aug 2021 03:45:08 INFO train_g Dataset:
	969675 interactions
	bert_vec: torch.Size([969675, 768])
Thu 19 Aug 2021 03:45:08 INFO train_j Dataset:
	822649 interactions
	bert_vec: torch.Size([822649, 768])
Thu 19 Aug 2021 03:45:16 INFO MultiPJF(
  (user_embedding_c): Embedding(55493, 256)
  (item_embedding_c): Embedding(41718, 256)
  (user_embedding_p): Embedding(55493, 256)
  (item_embedding_p): Embedding(41718, 256)
  (gcn_layers): Sequential(
    (0): GCNConv()
    (1): GCNConv()
  )
  (GCN_batchnorm): BatchNorm1d(512, eps=1e-05, momentum=0.1, affine=True, track_running_stats=True)
  (bert_mlp): Sequential(
    (0): Linear(in_features=768, out_features=256, bias=True)
    (1): BatchNorm1d(256, eps=1e-05, momentum=0.1, affine=True, track_running_stats=True)
    (2): Sigmoid()
    (3): Dropout(p=0.2, inplace=False)
    (4): Linear(in_features=256, out_features=512, bias=True)
    (5): BatchNorm1d(512, eps=1e-05, momentum=0.1, affine=True, track_running_stats=True)
  )
  (fusion_layer): FusionLayer(
    (m): SimpleFusionLayer(
      (fc): Linear(in_features=2048, out_features=512, bias=True)
    )
    (g): Sequential(
      (0): Linear(in_features=1024, out_features=1, bias=True)
      (1): Sigmoid()
    )
  )
  (sigmoid): Sigmoid()
  (loss): BCEWithLogitsLoss()
)
	Trainable parameters: 51153153
Thu 19 Aug 2021 03:46:35 INFO epoch 0 training [time: 79.70s, train loss:665.1086]
Thu 19 Aug 2021 03:46:52 INFO epoch 0 evaluating [time: 16.68s, valid_score: 0.519400]
Thu 19 Aug 2021 03:46:52 INFO valid result:
	gauc:	0.5194
	p@5:	0.1774
…
