…
Wed 25 Aug 2021 03:27:48 INFO valid_g Dataset:
	346256 interactions
Wed 25 Aug 2021 03:27:48 INFO test_g Dataset:
	323658 interactions
Wed 25 Aug 2021 03:27:48 INFO test_g Dataset:
	323658 interactions
Wed 25 Aug 2021 03:27:48 INFO test_j Dataset:
	158254 interactions
Wed 25 Aug 2021 03:27:48 INFO train_g Dataset:
	969675 interactions
Wed 25 Aug 2021 03:27:48 INFO train_j Dataset:
	822649 interactions
Wed 25 Aug 2021 03:27:48 INFO user_add Dataset:
	1767584 interactions
Wed 25 Aug 2021 03:27:48 INFO job_add Dataset:
	342216 interactions
Wed 25 Aug 2021 03:28:30 INFO MultiPJF(
  (user_embedding_c): Embedding(55494, 256)
  (item_embedding_c): Embedding(41719, 256)
  (user_embedding_p): Embedding(55494, 256)
  (item_embedding_p): Embedding(41719, 256)
  (gcn_layers): Sequential(
    (0): GCNConv()
    (1): GCNConv()
    (2): GCNConv()
  )
  (bert_lr): Linear(in_features=768, out_features=32, bias=True)
  (mlp): Sequential(
    (0): Linear(in_features=1728, out_features=64, bias=True)
    (1): BatchNorm1d(64, eps=1e-05, momentum=0.1, affine=True, track_running_stats=True)
    (2): Sigmoid()
    (3): Dropout(p=0.1, inplace=False)
    (4): Linear(in_features=64, out_features=1, bias=True)
  )
  (geek_b): Embedding(55494, 1)
  (job_b): Embedding(41719, 1)
  (sigmoid): Sigmoid()
  (loss): BCEWithLogitsLoss()
)
	Trainable parameters: 50005727
Wed 25 Aug 2021 03:31:44 INFO epoch 0 training [time: 193.69s, train loss:605.5528]
Wed 25 Aug 2021 03:32:20 INFO epoch 0 evaluating [time: 36.18s, valid_score: 0.648500]
Wed 25 Aug 2021 03:32:20 INFO valid result:
	gauc:	0.6485
	p@5:	0.2059
	r@5:	0.6173
	mrr:	0.4621
Wed 25 Aug 2021 03:32:23 INFO Saving current best: ./saved/MultiPJF-Aug-25-2021_03-28-30.pth
…
