…
Wed 25 Aug 2021 07:37:28 INFO valid_g Dataset:
	346256 interactions
Wed 25 Aug 2021 07:37:28 INFO test_g Dataset:
	323658 interactions
Wed 25 Aug 2021 07:37:28 INFO test_g Dataset:
	323658 interactions
Wed 25 Aug 2021 07:37:28 INFO test_j Dataset:
	158254 interactions
Wed 25 Aug 2021 07:37:28 INFO train_g Dataset:
	969675 interactions
Wed 25 Aug 2021 07:37:28 INFO train_j Dataset:
	822649 interactions
Wed 25 Aug 2021 07:37:28 INFO user_add Dataset:
	1767584 interactions
Wed 25 Aug 2021 07:37:28 INFO job_add Dataset:
	342216 interactions
Wed 25 Aug 2021 07:38:06 INFO MultiPJF(
  (user_embedding_c): Embedding(55494, 256)
  (item_embedding_c): Embedding(41719, 256)
  (user_embedding_p): Embedding(55494, 256)
  (item_embedding_p): Embedding(41719, 256)
  (gcn_layers): Sequential(
    (0): GCNConv()
    (1): GCNConv()
    (2): GCNConv()
  )
  (bert_lr): Linear(in_features=768, out_features=32, bias=True)
  (mlp): Sequential(
    (0): Linear(in_features=1728, out_features=64, bias=True)
    (1): BatchNorm1d(64, eps=1e-05, momentum=0.1, affine=True, track_running_stats=True)
    (2): Sigmoid()
    (3): Dropout(p=0.1, inplace=False)
    (4): Linear(in_features=64, out_features=1, bias=True)
  )
  (job_c_attn): Linear(in_features=288, out_features=1, bias=True)
  (job_p_attn): Linear(in_features=288, out_features=1, bias=True)
  (geek_c_attn): Linear(in_features=288, out_features=1, bias=True)
  (geek_p_attn): Linear(in_features=288, out_features=1, bias=True)
  (geek_b): Embedding(55494, 1)
  (job_b): Embedding(41719, 1)
  (sigmoid): Sigmoid()
  (loss): BCEWithLogitsLoss()
)
	Trainable parameters: 50006883
Wed 25 Aug 2021 07:41:15 INFO epoch 0 training [time: 189.40s, train loss:606.7123]
Wed 25 Aug 2021 07:41:50 INFO epoch 0 evaluating [time: 34.35s, valid_score: 0.650300]
Wed 25 Aug 2021 07:41:50 INFO valid result:
	gauc:	0.6503
	p@5:	0.2053
	r@5:	0.6150
	mrr:	0.4625
Wed 25 Aug 2021 07:41:52 INFO Saving current best: ./saved/MultiPJF-Aug-25-2021_07-38-06.pth
…
