…
	2760725 interactions
Mon 26 Jul 2021 04:02:26 INFO valid_g Dataset:
	346256 interactions
Mon 26 Jul 2021 04:02:26 INFO test_g Dataset:
	323658 interactions
Mon 26 Jul 2021 04:02:26 INFO test_g Dataset:
	323658 interactions
Mon 26 Jul 2021 04:02:26 INFO test_j Dataset:
	158254 interactions
Mon 26 Jul 2021 04:02:26 INFO train_g Dataset:
	1076087 interactions
Mon 26 Jul 2021 04:02:26 INFO train_j Dataset:
	1684638 interactions
Mon 26 Jul 2021 04:02:26 INFO user_add Dataset:
	1767584 interactions
Mon 26 Jul 2021 04:02:26 INFO job_add Dataset:
	342216 interactions
Mon 26 Jul 2021 04:02:33 INFO PJFNN(
  (emb): Embedding(26383, 64, padding_idx=0)
  (geek_layer): TextCNN(
    (net1): Sequential(
      (0): Conv2d(20, 20, kernel_size=(5, 1), stride=(1, 1))
      (1): BatchNorm2d(20, eps=1e-05, momentum=0.1, affine=True, track_running_stats=True)
      (2): ReLU()
      (3): MaxPool2d(kernel_size=(2, 1), stride=(2, 1), padding=0, dilation=1, ceil_mode=False)
    )
    (net2): Sequential(
      (0): Conv2d(20, 20, kernel_size=(3, 1), stride=(1, 1))
      (1): BatchNorm2d(20, eps=1e-05, momentum=0.1, affine=True, track_running_stats=True)
      (2): ReLU()
      (3): AdaptiveMaxPool2d(output_size=(1, 64))
    )
    (pool): AdaptiveMaxPool2d(output_size=(1, 64))
  )
  (job_layer): TextCNN(
    (net1): Sequential(
      (0): Conv2d(20, 20, kernel_size=(5, 1), stride=(1, 1))
      (1): BatchNorm2d(20, eps=1e-05, momentum=0.1, affine=True, track_running_stats=True)
      (2): ReLU()
      (3): MaxPool2d(kernel_size=(2, 1), stride=(2, 1), padding=0, dilation=1, ceil_mode=False)
    )
    (net2): Sequential(
      (0): Conv2d(20, 20, kernel_size=(5, 1), stride=(1, 1))
      (1): BatchNorm2d(20, eps=1e-05, momentum=0.1, affine=True, track_running_stats=True)
      (2): ReLU()
      (3): AdaptiveMaxPool2d(output_size=(1, 64))
    )
    (pool): AdaptiveAvgPool2d(output_size=(1, 64))
  )
  (mlp): Sequential(
    (0): Linear(in_features=64, out_features=64, bias=True)
    (1): ReLU()
    (2): Linear(in_features=64, out_features=1, bias=True)
  )
  (loss): BCEWithLogitsLoss()
)
	Trainable parameters: 1700177
Mon 26 Jul 2021 04:06:22 INFO epoch 0 training [time: 229.29s, train loss:455.1841]
Mon 26 Jul 2021 04:06:36 INFO epoch 0 evaluating [time: 14.12s, valid_score: 0.561700]
Mon 26 Jul 2021 04:06:36 INFO valid result:
	gauc:	0.5617
	p@5:	0.1875
	r@5:	0.5512
	mrr:	0.3936
Mon 26 Jul 2021 04:06:36 INFO Saving current best: ./saved/PJFNN-Jul-26-2021_04-02-33.pth
…
